…
2024-02-09 11:49:16.351417: I tensorflow/core/platform/cpu_feature_guard.cc:193] This TensorFlow binary is optimized with oneAPI Deep Neural Network Library (oneDNN) to use the following CPU instructions in performance-critical operations:  AVX AVX2
To enable them in other operations, rebuild TensorFlow with the appropriate compiler flags.
CODIGO: (None, 8, 8, 64)
Model: "model"
_________________________________________________________________
 Layer (type)                Output Shape              Param #
=================================================================
 input_1 (InputLayer)        [(None, 128, 128, 3)]     0

 conv2d (Conv2D)             (None, 128, 128, 512)     14336

 max_pooling2d (MaxPooling2D  (None, 64, 64, 512)      0
 )

 conv2d_1 (Conv2D)           (None, 64, 64, 256)       1179904

 max_pooling2d_1 (MaxPooling  (None, 32, 32, 256)      0
 2D)

 conv2d_2 (Conv2D)           (None, 32, 32, 128)       295040

 max_pooling2d_2 (MaxPooling  (None, 16, 16, 128)      0
 2D)

 conv2d_3 (Conv2D)           (None, 16, 16, 64)        73792

 max_pooling2d_3 (MaxPooling  (None, 8, 8, 64)         0
 2D)

 conv2d_4 (Conv2D)           (None, 8, 8, 64)          36928

 up_sampling2d (UpSampling2D  (None, 16, 16, 64)       0
 )

 conv2d_5 (Conv2D)           (None, 16, 16, 128)       73856

 up_sampling2d_1 (UpSampling  (None, 32, 32, 128)      0
 2D)

 conv2d_6 (Conv2D)           (None, 32, 32, 256)       295168

 up_sampling2d_2 (UpSampling  (None, 64, 64, 256)      0
 2D)

 conv2d_7 (Conv2D)           (None, 64, 64, 512)       1180160

 up_sampling2d_3 (UpSampling  (None, 128, 128, 512)    0
 2D)

 conv2d_8 (Conv2D)           (None, 128, 128, 3)       13827

=================================================================
Total params: 3,163,011
Trainable params: 3,163,011
Non-trainable params: 0
_________________________________________________________________
None

-------------------
  >FACTOR:  2
  >resolucion:  256
  >batch_size= 4
  >batches= 25
  >total images: 100
  >shuffle=  True
  >epocas=  50
  >split= 0.2
  >y shape = (400, 128, 128, 3)
…
