…
Aadaptando imagenes...( caltech101 )
------------------------------------
ds_name= caltech101 --> h2= 128 w2= 128

channels:  3
 nuevo array: samples: 9144  h2= 128  w2= 128  channels2= 3

Normalizando... caltech101
-------------------------
array A --> dtype= float32
array train --> dtype= uint8
datos cargados en arrays
OPTIMIZER= adam
---------------------------
Model: "sequential"
_________________________________________________________________
 Layer (type)                Output Shape              Param #
=================================================================
 flatten (Flatten)           (None, 49152)             0

 dense (Dense)               (None, 816)               40108848

 dense_1 (Dense)             (None, 408)               333336

 dense_2 (Dense)             (None, 204)               83436

 dense_3 (Dense)             (None, 102)               20910

=================================================================
Total params: 40,546,530
Trainable params: 40,546,530
Non-trainable params: 0
_________________________________________________________________
None

DS: caltech101  n_clases:  102 factor= 1  reduction to  102  categories using  1  machines

epocas finales: 30 , split = 0.2 batch= 32

Epoch 1/30
229/229 [==============================] - 58s 246ms/step - loss: 5.0875 - accuracy: 0.2078 - val_loss: 3.0664 - val_accuracy: 0.3783
…
