…
nuevo array: samples: 9144  h2= 60  w2= 60  channels2= 3

Adaptando imagenes... ( caltech101 )

Normalizando... caltech101
-------------------------
array A --> dtype= float32
array train --> dtype= uint8
datos cargados en arrays
num patches=  36
Model: "model"
__________________________________________________________________________________________________
 Layer (type)                   Output Shape         Param #     Connected to
==================================================================================================
 input_1 (InputLayer)           [(None, 60, 60, 3)]  0           []

 data_augmentation (Sequential)  (None, 60, 60, 3)   0           ['input_1[0][0]']

 patches (Patches)              (None, None, 300)    0           ['data_augmentation[0][0]']

 patch_encoder (PatchEncoder)   (None, 36, 32)       10784       ['patches[0][0]']

 layer_normalization (LayerNorm  (None, 36, 32)      64          ['patch_encoder[0][0]']
 alization)

 multi_head_attention (MultiHea  (None, 36, 32)      33568       ['layer_normalization[0][0]',
 dAttention)                                                      'layer_normalization[0][0]']

 add (Add)                      (None, 36, 32)       0           ['multi_head_attention[0][0]',
                                                                  'patch_encoder[0][0]']

 layer_normalization_1 (LayerNo  (None, 36, 32)      64          ['add[0][0]']
 rmalization)

 dense_1 (Dense)                (None, 36, 512)      16896       ['layer_normalization_1[0][0]']

 dropout (Dropout)              (None, 36, 512)      0           ['dense_1[0][0]']

 dense_2 (Dense)                (None, 36, 32)       16416       ['dropout[0][0]']

 dropout_1 (Dropout)            (None, 36, 32)       0           ['dense_2[0][0]']

 add_1 (Add)                    (None, 36, 32)       0           ['dropout_1[0][0]',
                                                                  'add[0][0]']

 layer_normalization_2 (LayerNo  (None, 36, 32)      64          ['add_1[0][0]']
 rmalization)

 multi_head_attention_1 (MultiH  (None, 36, 32)      33568       ['layer_normalization_2[0][0]',
 eadAttention)                                                    'layer_normalization_2[0][0]']

 add_2 (Add)                    (None, 36, 32)       0           ['multi_head_attention_1[0][0]',
                                                                  'add_1[0][0]']

 layer_normalization_3 (LayerNo  (None, 36, 32)      64          ['add_2[0][0]']
 rmalization)

 dense_3 (Dense)                (None, 36, 512)      16896       ['layer_normalization_3[0][0]']

 dropout_2 (Dropout)            (None, 36, 512)      0           ['dense_3[0][0]']

 dense_4 (Dense)                (None, 36, 32)       16416       ['dropout_2[0][0]']

 dropout_3 (Dropout)            (None, 36, 32)       0           ['dense_4[0][0]']

 add_3 (Add)                    (None, 36, 32)       0           ['dropout_3[0][0]',
                                                                  'add_2[0][0]']

 layer_normalization_4 (LayerNo  (None, 36, 32)      64          ['add_3[0][0]']
 rmalization)

 multi_head_attention_2 (MultiH  (None, 36, 32)      33568       ['layer_normalization_4[0][0]',
 eadAttention)                                                    'layer_normalization_4[0][0]']

 add_4 (Add)                    (None, 36, 32)       0           ['multi_head_attention_2[0][0]',
                                                                  'add_3[0][0]']

 layer_normalization_5 (LayerNo  (None, 36, 32)      64          ['add_4[0][0]']
 rmalization)

 dense_5 (Dense)                (None, 36, 512)      16896       ['layer_normalization_5[0][0]']

 dropout_4 (Dropout)            (None, 36, 512)      0           ['dense_5[0][0]']

 dense_6 (Dense)                (None, 36, 32)       16416       ['dropout_4[0][0]']

 dropout_5 (Dropout)            (None, 36, 32)       0           ['dense_6[0][0]']

 add_5 (Add)                    (None, 36, 32)       0           ['dropout_5[0][0]',
                                                                  'add_4[0][0]']

 layer_normalization_6 (LayerNo  (None, 36, 32)      64          ['add_5[0][0]']
 rmalization)

 flatten (Flatten)              (None, 1152)         0           ['layer_normalization_6[0][0]']

 dropout_6 (Dropout)            (None, 1152)         0           ['flatten[0][0]']

 dense_7 (Dense)                (None, 256)          295168      ['dropout_6[0][0]']

 dropout_7 (Dropout)            (None, 256)          0           ['dense_7[0][0]']

 dense_8 (Dense)                (None, 102)          26214       ['dropout_7[0][0]']

==================================================================================================
Total params: 533,254
Trainable params: 533,254
Non-trainable params: 0
__________________________________________________________________________________________________
None

 ---- configuacion del VIT -----
  > F= 1.0
  > categorias originales = 102
  > categorias de cada subred = 102
…
