…
   x_train: (9144,)
   y_train: (9144,)

Aadaptando imagenes...( caltech101 )
------------------------------------
ds_name= caltech101 --> h2= 227 w2= 227

channels:  3
 nuevo array: samples: 9144  h2= 227  w2= 227  channels2= 3

Normalizando... caltech101
-------------------------
array A --> dtype= float32
array train --> dtype= uint8
datos cargados en arrays
Model: "sequential"
_________________________________________________________________
 Layer (type)                Output Shape              Param #
=================================================================
 conv2d (Conv2D)             (None, 55, 55, 96)        34944

 max_pooling2d (MaxPooling2D  (None, 27, 27, 96)       0
 )

 conv2d_1 (Conv2D)           (None, 27, 27, 256)       614656

 max_pooling2d_1 (MaxPooling  (None, 13, 13, 256)      0
 2D)

 conv2d_2 (Conv2D)           (None, 13, 13, 384)       885120

 conv2d_3 (Conv2D)           (None, 13, 13, 384)       1327488

 conv2d_4 (Conv2D)           (None, 13, 13, 256)       884992

 max_pooling2d_2 (MaxPooling  (None, 6, 6, 256)        0
 2D)

 flatten (Flatten)           (None, 9216)              0

 dense (Dense)               (None, 4096)              37752832

 dropout (Dropout)           (None, 4096)              0

 dense_1 (Dense)             (None, 4096)              16781312

 dropout_1 (Dropout)         (None, 4096)              0

 dense_2 (Dense)             (None, 102)               417894

=================================================================
Total params: 58,699,238
Trainable params: 58,699,238
Non-trainable params: 0
_________________________________________________________________
None

DS: caltech101  n_clases:  102 factor= 1.0  reduction to  102  categories using  1  machines

OPTIMIZER= adam
---------------------------
OPTIMIZER= adam
epocas finales: 30 , split = 0.2 batch= 32  samples: 9144
…
